output/topic_model/topic_embeddings.safetensors (safetensors, 404056 bytes, 1 tensors)

topic_embeddings f4 [263, 384]
0	0x3a8eccc0	0.001089476
1	0xbb5debef	-0.0033862551
2	0x3c25e196	0.010124585
3	0xbc80fbc7	-0.015745057
4	0xbcd8621d	-0.026413972
5	0xbd34366d	-0.043997217
6	0x3d7a0161	0.06103647
7	0xbd08943a	-0.033344485
8	0x3ce5d80c	0.02805712
9	0xbcbae4cf	-0.022814183
10	0x3d1b696e	0.037942342
11	0xbcd784a1	-0.02630836
12	0xbc62e94f	-0.01384957
13	0xbbe1b5c0	-0.0068881214
14	0xbcf2e8a1	-0.029651942
15	0x3a6a6bba	0.0008942444
16	0xbb950b26	-0.004548448
17	0xbb2d03ad	-0.0026399896
18	0xbd60cc14	-0.054882124
19	0xbc1c8010	-0.009552017
20	0xbccff0b2	-0.025383327
21	0x3d3dc4b6	0.046330176
22	0xbca2ec5b	-0.019888094
23	0xbbff3fb0	-0.0077895746
24	0x3bc942dc	0.0061420035
25	0x3d29822c	0.041383907
26	0x3d1e236a	0.038607992
27	0x3c846c25	0.016164849
28	0x3a817582	0.0009876939
29	0xbd646e59	-0.0557693
30	0x3c0ccce3	0.008593771
31	0x3d445853	0.047935795
32	0xbc658add	-0.014010158
33	0xbce22615	-0.02760605
34	0x3c349681	0.011022211
35	0xbcfdb261	-0.030968847
36	0xbd1fb5d7	-0.038991775
37	0x3c2b30b8	0.010448627
38	0xbc36a5bf	-0.011147915
39	0xbca9b354	-0.020715393
40	0x3c25ab4d	0.010111642
41	0xbd7f1c79	-0.062283013
42	0x3cb51746	0.022105824
43	0xbce398f5	-0.027782897
44	0x3c58c8f9	0.013231509
45	0xbd0ffdb0	-0.035154045
46	0xbc777752	-0.015104132
47	0xbab0788b	-0.0013463659
48	0x3cd17938	0.025570497
49	0x3c91c94c	0.017796181
50	0xbce093f1	-0.027414294
51	0xbcd957a3	-0.026531046
52	0xbd052d14	-0.032513693
53	0xbcd9d210	-0.026589423
54	0x3c9c5ecb	0.01908817
55	0x3d5f7c08	0.054561645
56	0x3c0f44ac	0.0087444
57	0x3c982872	0.018573973
58	0x3c26ee98	0.010188721
59	0xbc8abddc	-0.016936235
60	0x3c74d28c	0.014942776
61	0x3c15b1cd	0.009136629
62	0xbd3a2caf	-0.04545277
63	0x3d027ea1	0.031859044
64	0x3b27781f	0.0025553775
65	0xbc11f5c8	-0.0089086965
66	0xbcfc99f3	-0.030835127
67	0xbd45ec51	-0.048321072
68	0xbd5f7172	-0.05455155
69	0xbba21886	-0.004946771
70	0x3c45cea4	0.012073193
71	0xbc6ea3d0	-0.014565423
72	0x3bc52995	0.00601692
73	0x3d4ad434	0.04951878
74	0x3d347a20	0.04406178
75	0xbca27a98	-0.019833848
76	0x3d84e351	0.0648867
77	0xbc96b433	-0.018396473
78	0x3d533802	0.051567085
79	0x3acfe611	0.0015861412
80	0xbc732e90	-0.014842644
81	0xbc4646f2	-0.012101876
82	0xbba46333	-0.0050167083
83	0x3ce9a581	0.028521301
84	0x3c8cd3d1	0.017190846
85	0x3ca0a259	0.019608663
86	0x3b829edd	0.003986223
87	0xbb5ead62	-0.0033977856
88	0xbb96a698	-0.0045974962
89	0x3ce4191d	0.027844006
90	0xbd154c92	-0.036449976
91	0x3c561bc0	0.01306814
92	0x3bd6ba11	0.0065529426
93	0x3cb9da59	0.022687124
94	0xbd8dd163	-0.06924703
95	0x3c80f4ef	0.015741793
96	0xbc83a6f1	-0.016070815
97	0xbc2b0ddf	-0.010440319
98	0xbd8d2e47	-0.06893592
99	0x3e47f03e	0.19525239
100	0xbcab863c	-0.020938031
101	0x3d357aae	0.04430645
102	0xbb6941a1	-0.0035592096
103	0x39f9d7d1	0.00047653777
104	0xbc98cfdd	-0.018653804
105	0xbc21ec3d	-0.009882984
106	0xbc42766a	-0.011869052
107	0xbbe6efc3	-0.007047625
108	0x3c2cb09c	0.010540154
109	0xbbf78e90	-0.0075548366
110	0xbcf9e2e0	-0.03050369
111	0x3cc7e401	0.024400713
112	0x3c7fd652	0.015615063
113	0x3cddc767	0.027072622
114	0x3cc0513d	0.023476237
115	0xbbfe0f66	-0.0077533005
116	0xbc35b550	-0.011090592
117	0xbc52f529	-0.012875834
118	0x3bbdc347	0.005791101
119	0x3cab3c86	0.020902883
120	0x3b5e5a18	0.0033928212
121	0xbc3e4fb4	-0.011615682
122	0xbd56a12a	-0.05239979
123	0x3c7bb5f6	0.015363207
124	0xbd23fc21	-0.04003537
125	0xbd8044a2	-0.06263091
126	0xbc934136	-0.017975431
127	0x89926b24	-3.5248976e-33
128	0x3ca8fcba	0.020628322
129	0xbc9f2c37	-0.019430263
130	0x3ce31698	0.027720734
131	0xbb6550ff	-0.0034990904
132	0x3ac90172	0.0015335514
133	0xba0a7b1a	-0.0005282626
134	0x3b262ba3	0.00253556
135	0x3be10a50	0.0068676844
136	0xbd6e0f9a	-0.058120348
137	0xbcb7913b	-0.022408118
138	0x3c55410f	0.013015999
139	0xbc157837	-0.0091229
140	0xbcdb48a2	-0.026768032
141	0xbd579da5	-0.052640576
142	0x3d7b90c7	0.061417367
143	0x3c29cac9	0.010363289
144	0xbce57cde	-0.028013643
145	0x3cf7511d	0.030190045
146	0x3be60b6c	0.0070204046
147	0xbcac9ecb	-0.021071812
148	0x3c2eff08	0.010680921
149	0x3cd9fa5b	0.026608637
150	0x3b2756f0	0.0025533997
151	0x3d0638c8	0.032768995
152	0xbd34aac7	-0.04410818
153	0x3c571bd6	0.013129195
154	0x3c764b29	0.015032568
155	0xbd1956c4	-0.03743626
156	0xbd25d982	-0.040490635
157	0x3d3c30dd	0.045945037
158	0xbcd34947	-0.025791777
159	0x3c3cc105	0.011520629
160	0xbcb0b5b6	-0.021571022
161	0xbd32644d	-0.043552686
162	0x3d0e6745	0.034766454
163	0x3c0630a6	0.00819031
164	0x3c6af047	0.014339513
165	0xbd009860	-0.031395316
166	0x3c07a3a8	0.008278765
167	0x3d0418f8	0.032250375
168	0xbcfad418	-0.030618712
169	0xbc407296	-0.011746069
170	0xbcd6c53a	-0.026217092
171	0xba078be0	-0.00051706843
172	0x3c8e8aaf	0.017400114
173	0x3d42d335	0.047564704
174	0x3d1d7ca5	0.03844895
175	0x3b7a1162	0.0038157334
176	0xbcb49dae	-0.022047844
177	0x3d5e335e	0.054248206
178	0x3abf0fc5	0.0014576843
179	0xbb95b2e5	-0.004568445
180	0xbc6174a6	-0.013760721
181	0xb8d80a99	-0.000103016566
182	0x3c3e6791	0.011621372
183	0xbc66262e	-0.014047189
184	0x3c3c111a	0.011478687
185	0xbd0f91aa	-0.035051025
186	0x3c115d85	0.008872394
187	0x3b9965ba	0.004681316
188	0x3b30b165	0.0026961204
189	0x3a8f5618	0.0010935692
190	0xbc9da8df	-0.019245563
191	0xbbc25cc1	-0.0059314673
192	0xbb5e9cc7	-0.0033967958
193	0xbd9c258e	-0.076243505
194	0x3ccc6af8	0.02495335
195	0xbba3bd56	-0.004996936
196	0x3d59030d	0.052981425
197	0x3c6e31ac	0.01453821
198	0xbd19c2e6	-0.037539385
199	0xbcecfe37	-0.028929813
200	0x3cc1b8ab	0.023647627
201	0xbab6baaa	-0.0013941128
202	0xbd06a696	-0.032873712
203	0xbc65c2ce	-0.014023496
204	0xbc00a59e	-0.007851986
205	0x3cde0f60	0.02710694
206	0x3c2a5df3	0.010398376
207	0x3c7c2bfb	0.015391345
208	0x3c8f7c46	0.017515313
209	0x3c1b4317	0.009476445
210	0xba9d57c3	-0.0012004304
211	0xbbbe4591	-0.005806633
212	0x3c91c80c	0.017795585
213	0x3cb76154	0.022385277
214	0x3d06efca	0.032943524
215	0xbd307fee	-0.043090753
216	0xbc137e7b	-0.009002323
217	0x3d1de611	0.038549487
218	0xbd13b442	-0.03606058
219	0x3cb78dd7	0.022406502
220	0x3d2dfef8	0.042479485
221	0xbcf424e6	-0.02980275
222	0xbd2cfec6	-0.04223516
223	0x0947457c	2.3986425e-33
224	0xbd2849ec	-0.041086122
225	0xb8136398	-3.5140285e-05
226	0xbd2c7b77	-0.042109933
227	0x3d9a7eec	0.0754374
228	0x3bdc3932	0.0067206854
229	0xbbeb16da	-0.007174355
230	0x3d60bafb	0.05486582
231	0x3ce19597	0.02753715
232	0xbc23b059	-0.009990775
233	0x3d04b7de	0.032401912
234	0xbcc9e9ea	-0.024647672
235	0xbd01a270	-0.031649053
236	0x3d46e028	0.048553616
237	0x3bf389fe	0.0074322214
238	0x3d58ffb5	0.052978236
239	0x3caca1c0	0.021073222
240	0x3c458f1e	0.012058048
241	0x3ca24a09	0.019810693
242	0xbc737a24	-0.014860664
243	0xbb946ba1	-0.004529432
244	0xbcfe2d84	-0.031027563
245	0xbd0e5510	-0.03474909
246	0x3c73d76c	0.014882904
247	0x3cf91570	0.03040573
248	0xbc00cffe	-0.007862089
249	0x3cbf2bfb	0.023336401
250	0x3c6cba06	0.014448648
251	0xbcb4bf38	-0.022063836
252	0xbd7c630b	-0.061617892
253	0x3c86561f	0.016398488
254	0xb8dd044a	-0.000105389
255	0xbcc47646	-0.023982178
